Software-Engineering/backend/mnist/mnist/mnist.pt (torch, 891447 bytes, 6 tensors)

input_fc.weight f4 [250, 784]
0	0xbc989d1f	-0.018629609
1	0x3b73ed21	0.0037220197
2	0x3ca06e6d	0.019583905
3	0xbc105e05	-0.0088114785
4	0xbc57977f	-0.013158678
5	0x3b681348	0.0035411883
6	0x3b93dd0b	0.0045124344
7	0x3c648b14	0.013949174
8	0x3c688f07	0.014194257
9	0xbb29e30d	-0.0025922686
10	0x3cec7ed1	0.028869065
11	0x3cd046db	0.025424412
12	0x3bb36636	0.005474831
13	0xbcbf78d4	-0.023373045
14	0x3c38ca20	0.011278659
15	0xbac08f07	-0.0014691063
16	0x3ca52f23	0.020164078
17	0xbca2f19b	-0.019890597
18	0x3c979a8a	0.018506307
19	0xbae49abd	-0.0017441135
20	0xbc11c23c	-0.008896407
21	0x3c4c0a39	0.012453609
22	0xbc20d490	-0.009816304
23	0xbcc0228f	-0.023453979
24	0x3c960ccf	0.018316654
25	0x3c91a477	0.017778618
26	0xbbb960f2	-0.0056573087
27	0x3c384832	0.011247681
28	0xbac0d79a	-0.0014712692
29	0x3cc1890c	0.02362492
30	0x3baabbc6	0.0052103726
31	0xbb1fa2a7	-0.0024358423
32	0x3c4d648b	0.012536178
33	0x3bd5ea1d	0.0065281526
34	0xbc5703b6	-0.013123443
35	0xbc54c706	-0.012986904
36	0xbc3d90f7	-0.011570207
37	0xbcb04bd9	-0.021520542
38	0xbc7836a3	-0.015149745
39	0xbc99fd66	-0.018797588
40	0x3cac5389	0.021035926
41	0xbbb80430	-0.0056157336
42	0x3b8077eb	0.0039205453
43	0x3b5bade6	0.00335204
44	0x3c4c65f5	0.01247548
45	0x3c7d1efe	0.015449284
46	0x3c1c918e	0.009556187
47	0x3c8da4d2	0.017290507
48	0x3cb1383e	0.021633264
49	0x3c911c35	0.017713645
50	0x3c971a2f	0.018445102
51	0x3a639e2e	0.00086829334
52	0xb9877327	-0.00025835002
53	0x3ca3190d	0.019909406
54	0x3c36fe1f	0.011168986
55	0xbc6e6836	-0.014551213
56	0x3c23485d	0.009965983
57	0x3a91af97	0.0011114952
58	0x3c0378a4	0.008024368
59	0x3cc44e46	0.023963105
60	0xbcbb2478	-0.022844538
61	0xbcbc713c	-0.023003213
62	0xbb9c4716	-0.0047692163
63	0x3cb6bd95	0.022307197
64	0x3bb4f034	0.0055217985
65	0xbc6221ba	-0.013801986
66	0xbccbdde6	-0.024886083
67	0x3c837601	0.01604748
68	0x3c4d3389	0.012524494
69	0x3c21d1ab	0.009876649
70	0xbcc2d81e	-0.023784693
71	0xbc7ae2b1	-0.0153128365
72	0x3c6c9c3a	0.014441544
73	0x3c3874f6	0.011258354
74	0x3b151dce	0.002275336
75	0x3b72f66c	0.0037073148
76	0xba1d5cbf	-0.0006002895
77	0x3ca8f612	0.020625148
78	0x3b87230f	0.0041240524
79	0x3bc0cd38	0.005883839
80	0xbc0a78d7	-0.008451662
81	0x3a74dc49	0.00093406864
82	0xba7554a0	-0.00093586184
83	0xbb6f7957	-0.003654083
84	0xbc76cf4a	-0.01506407
85	0xbc4859e6	-0.012228465
86	0x3cea1e68	0.028578952
87	0x3c3cad07	0.011515862
88	0x3cc3e7a8	0.023914173
89	0x3c594a77	0.013262383
90	0x3cbbda37	0.022931201
91	0x3c17fc45	0.009276454
92	0x3957396b	0.00020525388
93	0xbc3778fe	-0.01119828
94	0xbc3b75d1	-0.011441664
95	0x3bbee2b0	0.005825363
96	0x3bc7d757	0.0060986686
97	0x3c9432d4	0.018090643
98	0x3cdb4af4	0.026769139
99	0xbc022a7f	-0.007944702
100	0x3c9ebacf	0.019376187
101	0x3ca00fe2	0.019538824
102	0x3c8833cd	0.016626263
103	0x3c002918	0.0078222975
104	0xbc098fa9	-0.008396068
105	0xbc97aa92	-0.018513951
106	0x3c95e65f	0.018298326
107	0x3cbeca1e	0.023289736
108	0x3c670c67	0.014102078
109	0x3b9b3222	0.004736201
110	0x3b83abb8	0.004018273
111	0xbbfbbd12	-0.007682451
112	0x3c81d5f0	0.015849084
113	0x3ba840df	0.0051346864
114	0xbc6e6555	-0.014550527
115	0x3ca327c8	0.01991643
116	0x3c409b3d	0.011755762
117	0x3c9d0c0b	0.019170782
118	0x3c3aa0f5	0.011390914
119	0x3adb3840	0.0016725138
120	0x3beb45fb	0.007179973
121	0x3b0287cf	0.0019917374
122	0xbba945a7	-0.005165774
123	0x3ccab737	0.024745567
124	0xbca9ee1d	-0.020743424
125	0x3cc22ae5	0.023702094
126	0x3d0293a0	0.031879067
127	0xbae4226f	-0.0017405282
128	0xbc40db60	-0.011771053
129	0x3caae86f	0.020862786
130	0x3cdef332	0.027215574
131	0xbc042c0c	-0.008067142
132	0x3cb4dbdb	0.022077492
133	0x3cc62723	0.024188584
134	0x3a938c75	0.001125707
135	0xbb9252dd	-0.0044654445
136	0xbc925cf8	-0.017866597
137	0x3b0e749e	0.002173699
138	0xbc61a4fa	-0.013772244
139	0x3c3ae580	0.011407256
140	0xbc937bef	-0.018003432
141	0xbc9c0599	-0.019045638
142	0x3ca9545c	0.020670108
143	0xba779f19	-0.00094460096
144	0x3ce1bfb9	0.02755724
145	0x3c1d2905	0.009592299
146	0x3c19ac55	0.009379466
147	0xbc1f3494	-0.009717125
148	0xbbe1c355	-0.0068897405
149	0x3b886e34	0.004163528
150	0x3cc5934d	0.02411809
151	0x3ce1b7e6	0.02755351
152	0x39be2b05	0.00036271676
153	0x3d3123bd	0.043246973
154	0x3a7549e6	0.000935702
155	0x3c9bdd26	0.01902635
156	0x3c0bb6c8	0.008527465
157	0x3bd92866	0.0066271303
158	0xbca9c9e1	-0.020726146
159	0x3993be68	0.0002817989
160	0x3baad57a	0.0052134367
161	0xbc1ad7b6	-0.009450844
162	0x3c90f047	0.017692698
163	0x3bc0a955	0.005879561
164	0xbc0d3683	-0.008618954
165	0x3ba8ac36	0.0051474823
166	0xbc112d84	-0.008860949
167	0xbbe59beb	-0.0070071123
168	0xbb0dd281	-0.0021640363
169	0xbb888934	-0.0041667465
170	0xbc31e036	-0.010856679
171	0x3c6807ae	0.014161987
172	0xbccfed86	-0.025381815
173	0x3c9e20b2	0.0193027
174	0x3c3b04e4	0.01141474
175	0xbc951245	-0.018197188
176	0xbcb2e4b8	-0.021837577
177	0x3b7216bc	0.003693982
178	0xbb1c8f4d	-0.0023889125
179	0x3cf7b8c5	0.030239472
180	0x3cf7824e	0.030213501
181	0x3c2fc327	0.01072768
182	0x3cc2b47a	0.023767699
183	0xbaade29a	-0.0013266385
184	0x3c9451a4	0.018105336
185	0xbb9f2b23	-0.004857437
186	0xbab98489	-0.0014153878
187	0xbcc6523e	-0.024209138
188	0xbb0d0154	-0.0021515684
189	0xbc0394f5	-0.00803112
190	0x3c92cb5b	0.017919233
191	0xbc694669	-0.0142379785
192	0x3cc41e6e	0.023940291
193	0x3b1c3631	0.0023836012
194	0xbc0da9b5	-0.008646418
195	0x3b8d21bf	0.0043070014
196	0x3c63c97b	0.013903017
197	0xbc2c2cae	-0.010508699
198	0x3cbdc7a9	0.023166494
199	0xba78bab1	-0.00094882684
200	0xbbe17124	-0.0068799425
201	0xbc95ad30	-0.018271059
202	0x3abb148c	0.0014273091
203	0x3caa8016	0.02081303
204	0xbcb75f9b	-0.022384455
205	0xbc69c310	-0.014267698
206	0x3b9e4015	0.0048294165
207	0x3ca50c7d	0.020147556
208	0x3d3c323f	0.045946356
209	0x3cbdafc2	0.023155097
210	0x3d060362	0.03271807
211	0x3cb0bd48	0.021574631
212	0x3b828212	0.0039827907
213	0xbcb634d8	-0.022241995
214	0xbcb84a85	-0.022496471
215	0x3b94b83c	0.004538564
216	0xbc8b7b51	-0.017026575
217	0xbd04f7bc	-0.03246282
218	0xbca82b8f	-0.020528583
219	0x3cc332d4	0.023827948
220	0xbc3e3682	-0.011609675
221	0xbb6cfdf5	-0.0036162112
222	0xbc79b038	-0.015239768
223	0x3ccff87c	0.025387041
224	0xbbd82fd6	-0.0065974994
225	0x3caab127	0.020836426
226	0xbbe20c6a	-0.0068984525
227	0xbbd8d413	-0.006617078
228	0x3bed4bdb	0.0072417087
229	0x3ccc1f3e	0.024917241
230	0x3bf39121	0.007433072
231	0xbbbfa237	-0.005848195
232	0xbcadf82a	-0.021236498
233	0xbc64bc1e	-0.013960866
234	0x3badc4e2	0.0053030113
235	0x3cc81b2b	0.024427017
236	0x3d14bd42	0.036313303
237	0x3bb20ffb	0.005434034
238	0x3d0f46aa	0.0349795
239	0xbb7d4e37	-0.0038651356
240	0x3c68ba61	0.014204592
241	0xbbd7f349	-0.006590281
242	0x3b02c74d	0.0019955218
243	0xbb696856	-0.0035615168
244	0xbb30280f	-0.0026879346
245	0xbcc9d750	-0.024638802
246	0xb9a1aa13	-0.00030835028
247	0xbbd3d066	-0.006464052
248	0xbc403012	-0.011730211
249	0x3cdfe452	0.027330551
250	0xbc4c2cef	-0.012461885
251	0x3b5997e6	0.003320211
252	0x3bb19604	0.0054194946
253	0x3b3ecd8b	0.0029114212
254	0x3c413089	0.011791357
255	0x3c6ad8dd	0.014333931

input_fc.bias f4 [250]
0	0xbca2f6f0	-0.01989314
1	0x3c9e3b77	0.019315464
2	0x3b357f03	0.0027694113
3	0x3ccdca00	0.025120735
4	0xbbe358e0	-0.006938085
5	0x3d148969	0.036263857
6	0xbcb75ab2	-0.022382114
7	0xbb8beefe	-0.0042704334
8	0x3ca6e476	0.02037261
9	0xbb731d5b	-0.0037096355
10	0x3ca719f7	0.020398123
11	0x3aca3d9c	0.0015429738
12	0x3be6b53f	0.007040649
13	0x3c195e68	0.009360887
14	0xbbc6cfd8	-0.0060672574
15	0xbc99e75c	-0.018787079
16	0x3c8043eb	0.015657386
17	0xbbd76158	-0.0065728836
18	0x3a47b5cb	0.0007618337
19	0xbc9af48a	-0.018915433
20	0xbd87e08f	-0.06634628
21	0xbd0bbe6c	-0.034117147
22	0xbd0fbd50	-0.03509265
23	0xbd120e7d	-0.03565835
24	0xbd857e37	-0.06518214
25	0xbd0ad932	-0.03389854
26	0xbb94b0cd	-0.004537678
27	0xbc0639dd	-0.008192507
28	0xbc9eeeaa	-0.019400913
29	0xbcd60e26	-0.026129793
30	0xbbc72b5f	-0.0060781683
31	0xbcdc4ac9	-0.02689113
32	0xbd321535	-0.043477256
33	0x3d120147	0.03564575
34	0x3d7f91f9	0.06239507
35	0xbccf09a5	-0.025273154
36	0x3cf1d3e8	0.02951999
37	0xbc7ac7ce	-0.015306426
38	0xbc2c593b	-0.010519321
39	0xbcdc2074	-0.026870944
40	0x3c82e966	0.015980434
41	0xbcb0bb52	-0.021573696
42	0x3d301c07	0.04299548
43	0x3d073944	0.033013597
44	0x3ad5e128	0.0016317712
45	0x3abc26a5	0.0014354779
46	0x3d22b419	0.039722536
47	0xbb332dda	-0.0027340562
48	0x3c7e4937	0.0155203855
49	0xbc6c0613	-0.014405745
50	0x3c931725	0.017955372
51	0xbcad1954	-0.021130241
52	0x3c0bc57d	0.008530972
53	0x3c11baae	0.008894606
54	0xbc642068	-0.013923742
55	0xbd02b4e2	-0.031910785
56	0xbcbce374	-0.023057677
57	0xbc16be33	-0.00920062
58	0x3c57b10b	0.013164769
59	0xbbcd2f19	-0.006261718
60	0xbbca529b	-0.006174398
61	0xbcefaa93	-0.02925614
62	0xbd5a1f59	-0.05325255
63	0xbad029d4	-0.0015881606
64	0xbadfa143	-0.001706161
65	0xbb14a31f	-0.0022680236
66	0x3c946b15	0.018117467
67	0xbd8321e8	-0.064029515
68	0xbbec1ecf	-0.007205821
69	0x3c523b91	0.012831585
70	0xbc8b9958	-0.017040893
71	0xbd416cb8	-0.047222823
72	0x3c94523b	0.018105617
73	0x3c78b0d3	0.015178877
74	0x3c73b7c2	0.014875354
75	0x3d1b5d63	0.037930857
76	0xbcc748de	-0.024326738
77	0xbc1f0037	-0.009704641
78	0xbc0c6879	-0.00856983
79	0x3c19f4e8	0.009396769
80	0xbccccf26	-0.02500112
81	0x3d4e91b3	0.05043192
82	0x3c85af69	0.016318994
83	0xbc287f8c	-0.010284316
84	0xbb14d91d	-0.0022712417
85	0xbcc841a1	-0.024445357
86	0xbbd90873	-0.0066233217
87	0xbc11ed8f	-0.008906736
88	0xbc9ecf9f	-0.01938611
89	0xbc9199c7	-0.017773522
90	0x3b3e595d	0.0029044964
91	0x3ced2ec9	0.028952973
92	0x3c78a3a1	0.015175731
93	0xbbcdb6c7	-0.0062778923
94	0x3cbe1cc7	0.023207081
95	0x3aa094e9	0.001225141
96	0x3c3bf41d	0.011471775
97	0x3c4d3d88	0.012526877
98	0xbb3259a5	-0.0027214077
99	0xbd6180a5	-0.055054326
100	0x3caa5543	0.02079261
101	0xbca1aa86	-0.019734632
102	0xbc0d2519	-0.008614802
103	0xbc4e60d8	-0.012596332
104	0xbcad6334	-0.021165468
105	0xbcc03393	-0.023462093
106	0xbad862bf	-0.0016508921
107	0xbc4ba8f1	-0.0124304155
108	0x3d1e8668	0.0387024
109	0xbcb76b60	-0.022390068
110	0x3c6b0057	0.014343343
111	0x3d6439f7	0.055719342
112	0xbcdb1d1c	-0.026747279
113	0x3c98202b	0.018570026
114	0xbc1d9105	-0.009617095
115	0x3c06d50f	0.008229508
116	0x3ba374db	0.0049882955
117	0x3bca5e1c	0.0061757695
118	0x3c3957d4	0.011312444
119	0x3be6dc4f	0.007045306
120	0x3b3c5571	0.002873745
121	0xbcb4cdf2	-0.022070859
122	0xbc89456f	-0.016756741
123	0xbadeed2d	-0.001700794
124	0x3ca0b993	0.019619739
125	0xbb9cbc54	-0.0047831926
126	0xbd79d3c4	-0.06099297
127	0x3d342490	0.04398018
128	0x3ce3571c	0.027751498
129	0x3c8302fb	0.015992632
130	0x3cddf09f	0.027092276
131	0x3c67268f	0.014108314
132	0x3d12d979	0.03585193
133	0xbd224f70	-0.03962654
134	0xbc8f33bc	-0.017480724
135	0xbc60d995	-0.013723751
136	0x3d01fa62	0.031732924
137	0xbbdd5d68	-0.0067555197
138	0xbc4d8121	-0.012542994
139	0x3c9a185e	0.018810447
140	0x3c0ed91e	0.008718757
141	0x3ced24d6	0.028948229
142	0xbaaea2cc	-0.0013323664
143	0x3d6c344a	0.057667054
144	0xbc3ae329	-0.011406698
145	0xbd1372ef	-0.03599828
146	0x3be01bce	0.006839252
147	0xbd02e8f4	-0.031960443
148	0x3d13abfe	0.036052696
149	0xbca9c70d	-0.020724798
150	0xbd662d5a	-0.056195594
151	0x3d1b54c6	0.037922643
152	0x3b681835	0.003541482
153	0xbc038f69	-0.008029797
154	0xbcf20db7	-0.029547555
155	0xbcc1ebbd	-0.02367198
156	0xbc804460	-0.015657604
157	0x3ce9f1b7	0.028557641
158	0x3ad9972b	0.0016600838
159	0x3dc024d1	0.09382022
160	0xbd0cad62	-0.03434504
161	0x3cd394ec	0.025827847
162	0xbcf84ed5	-0.030311028
163	0xbc1c3685	-0.009534483
164	0xb90c8efc	-0.00013404706
165	0x3d566237	0.05233976
166	0x3c1d5cc4	0.009604637
167	0xbc5766ce	-0.013147069
168	0xbcd4ddf9	-0.025984751
169	0xbd00b699	-0.03142414
170	0x3bff44da	0.00779019
171	0x3c5ed7e5	0.013601278
172	0xbc18dc3c	-0.009329852
173	0xbcfd795c	-0.030941658
174	0x3c8e65fd	0.017382616
175	0x3b15ae03	0.0022839315
176	0x3c718cf1	0.014743076
177	0x3c9c9aef	0.019116847
178	0x3c79585d	0.015218821
179	0x3d42e1ed	0.04757874
180	0x3c1f96fb	0.009740586
181	0x3cc83d79	0.024443375
182	0x3ae05066	0.0017113804
183	0xbc65b620	-0.014020473
184	0x3cd7f732	0.02636299
185	0xbc9afe15	-0.018919984
186	0xbb92f9cf	-0.004485346
187	0x3c997957	0.018734617
188	0x3cbdc20e	0.023163822
189	0x3c94bfb6	0.018157821
190	0x3ccdad6c	0.025107108
191	0xbc5b04ad	-0.013367814
192	0x3ad9ffb1	0.0016631988
193	0xbc8c97bb	-0.017162194
194	0xbc936400	-0.01799202
195	0x3c208c02	0.009799005
196	0xbcffae79	-0.031211125
197	0x3cafc292	0.021455083
198	0x3d0b72a1	0.034044866
199	0xbcc5a667	-0.024127198
200	0x3c1a51a2	0.009418877
201	0xbd201049	-0.03907803
202	0xbbfcbed5	-0.0077131786
203	0xbc6f4402	-0.014603617
204	0xbc5a17a7	-0.013311303
205	0x3b96069b	0.004578424
206	0xbc668b61	-0.014071316
207	0x3d0467a2	0.032325394
208	0xbc8d71ea	-0.017266233
209	0x3cde8590	0.027163297
210	0xbc81737a	-0.015802134
211	0x3aeb65a3	0.0017959367
212	0xba41e929	-0.00073971093
213	0x3c14584f	0.009054258
214	0x3c9d72c8	0.019219771
215	0xbc3b98ce	-0.011450006
216	0xbccc43ac	-0.024934612
217	0x3b53edc5	0.0032337767
218	0x3d5907e7	0.052986052
219	0x3d130b8c	0.035899684
220	0xbbd35259	-0.0064490256
221	0xbd00cca9	-0.03144518
222	0x3d1b70ad	0.037949253
223	0xbcf20aed	-0.029546225
224	0xbccbd318	-0.02488093
225	0xbc882305	-0.016618261
226	0x3c738120	0.014862329
227	0x3b2a2c56	0.0025966368
228	0x3c63d228	0.013905086
229	0xbcc9ac00	-0.024618149
230	0xbc15b6e3	-0.009137842
231	0xbd373e3e	-0.044737093
232	0x3c850f0c	0.016242526
233	0x3cb18510	0.021669894
234	0x3a08d285	0.0005219358
235	0xbc8df00b	-0.017326375
236	0x3be20c0a	0.006898408
237	0x3d146daf	0.036237415
238	0x3c316496	0.010827204
239	0x3af34a29	0.001856153
240	0xbd122212	-0.035677023
241	0xbd08a0b2	-0.033356376
242	0x3c1c5564	0.009541843
243	0x3aebb64b	0.0017983405
244	0x3abbf917	0.0014341202
245	0x3c3776ea	0.011197785
246	0x3c8782f9	0.016541945
247	0xbcc4fe8b	-0.024047157
248	0x3cd8e844	0.02647794
249	0x3d68d4d4	0.056843594

hidden_fc.weight f4 [100, 250]
0	0xbbfa21df	-0.0076334323
1	0xbd9eaa14	-0.077472836
2	0x3d311f5a	0.04324279
3	0xbdc37a93	-0.095448636
4	0x3d58b43f	0.05290627
5	0x3cc91523	0.024546212
6	0xbdda6ac2	-0.10664894
7	0xbdfb75ca	-0.12278326
8	0x3bd1a42f	0.006397746
9	0xbd45d180	-0.048295498
10	0xbda3ede4	-0.080043584
11	0xbc87d3f4	-0.01658056
12	0x3cd4826a	0.025941093
13	0x3cd4f084	0.025993593
14	0x3cc3fa80	0.023923159
15	0xbbb1d9ba	-0.0054275664
16	0xbaba1108	-0.001419575
17	0x3c86e7ca	0.016467948
18	0x3c35b9de	0.0110916775
19	0xbd7430c0	-0.059616804
20	0x3db3fd8a	0.08788593
21	0x3d9ff474	0.078102976
22	0x3dd9d081	0.10635472
23	0xbdbdc515	-0.09266106
24	0x3d0f69f1	0.035013143
25	0x3c0cdcc7	0.008597559
26	0x3be518da	0.006991488
27	0x3bfcedbe	0.0077187708
28	0x3d9986df	0.07496428
29	0xbd55bb1a	-0.052180387
30	0x3d3044df	0.04303443
31	0xbd90a0f4	-0.07061949
32	0x3d118ae5	0.03553285
33	0xbcb8f102	-0.022575859
34	0x3d37d1cf	0.044877823
35	0x3c81fa5c	0.015866451
36	0xbdca4417	-0.09876268
37	0x3d7102ba	0.05884049
38	0xbd0fdcca	-0.03512267
39	0x3d1a0fac	0.037612602
40	0xbd483b26	-0.048884533
41	0xbd500219	-0.05078325
42	0x3d3f4380	0.046695232
43	0x3dbad9e3	0.0912359
44	0x3cd57042	0.026054505
45	0xbaf7ab07	-0.0018895575
46	0x3d106127	0.0352489
47	0x3da8c532	0.08240737
48	0x3d2ffe23	0.042966973
49	0xbb1735ed	-0.0023072914
50	0x3d80ef68	0.06295663
51	0xbd8c75de	-0.06858419
52	0x3c8f123c	0.01746475
53	0x3ce3d2b5	0.027810434
54	0xba16491f	-0.0005732942
55	0x3c2e3719	0.0106332535
56	0x3cdfde49	0.027327674
57	0x3da7d5b6	0.08195059
58	0x3ade8887	0.0016977944
59	0xbd2a6b1a	-0.041606046
60	0x3d5caa16	0.053873144
61	0x3bfa3f5f	0.007636949
62	0xbd5809e3	-0.052743804
63	0xbca7e7e8	-0.020496324
64	0x3d18aad2	0.037272282
65	0xbc7708b4	-0.015077759
66	0xba088648	-0.0005207998
67	0xbd43193a	-0.04763148
68	0x3d0140d1	0.031555954
69	0x3d463908	0.048394233
70	0x3ad92d8d	0.0016569361
71	0xbe19e2ff	-0.15027998
72	0xbd83e4f0	-0.06440151
73	0x3c719193	0.01474418
74	0xbcd42272	-0.025895331
75	0x3d60c8cf	0.054879006
76	0x3c2e0b6f	0.010622843
77	0xbdcc0378	-0.09961599
78	0xbca7ffbf	-0.020507691
79	0xbddd5a6b	-0.108082615
80	0x3c5f8df0	0.01364468
81	0x3d9a6a08	0.07539755
82	0x3d7ef369	0.062243853
83	0xbd62cdf6	-0.0553722
84	0xbdb04b9c	-0.08608171
85	0x3e0a9bba	0.13535967
86	0xbe2240cf	-0.15845035
87	0x3d7bb0ec	0.061448023
88	0xbd2d4eca	-0.042311467
89	0xbc398961	-0.011324258
90	0x3d89b632	0.06724204
91	0x3d17692e	0.03696554
92	0x3bb97c9b	0.005660606
93	0x3d948921	0.07252718
94	0x3d2a6193	0.04159696
95	0x3d7867d9	0.06064591
96	0x3ca75ac4	0.020429023
97	0xbdbf18c8	-0.093308985
98	0xbdba5070	-0.090973735
99	0xbafb9781	-0.0019194932
100	0x3d2e2f58	0.04252562
101	0xbd20ea80	-0.039286137
102	0x3dbd3537	0.092386656
103	0xbcecc957	-0.0289046
104	0xbdcce237	-0.100040846
105	0xbdbd7e0a	-0.09252556
106	0x3bcb03e6	0.006195533
107	0xbd02cfd6	-0.03193649
108	0x3db0ae52	0.08626999
109	0x3d712754	0.058875397
110	0xbd60d12a	-0.054886974
111	0xbcdcba09	-0.026944177
112	0x3cc5c3de	0.024141248
113	0xbc1b316b	-0.009472231
114	0xbd5a37a1	-0.053275708
115	0xbca618f6	-0.020275574
116	0x3c596aef	0.013270124
117	0x3c5a325b	0.01331767
118	0xbd6949e9	-0.05695525
119	0xbd153490	-0.03642708
120	0x3cd923d9	0.026506351
121	0x3d5479db	0.051874023
122	0x3de7e48c	0.11322889
123	0xba640caa	-0.0008699397
124	0xbd1b7724	-0.03795542
125	0xbd34ae23	-0.044111382
126	0xbd842968	-0.0645321
127	0x3d010d10	0.031506598
128	0x3c99c413	0.018770253
129	0x39c84281	0.00038196522
130	0x3c810cca	0.015753169
131	0x3da4b211	0.08041776
132	0xbe2d4e1f	-0.16924332
133	0xbd8815a9	-0.06644756
134	0x3db17529	0.08664925
135	0x3cd3509e	0.025795277
136	0xbe167c7e	-0.14695928
137	0x3c8c2446	0.01710714
138	0xbd71021c	-0.058839902
139	0x3d1bde99	0.038054083
140	0x3c87acaf	0.016561834
141	0xbb0dd924	-0.0021644318
142	0xbd862ad2	-0.06551136
143	0x3c953ba4	0.018216915
144	0xbde0faa1	-0.10985304
145	0x3c7d8224	0.0154729225
146	0x3cd486b5	0.02594314
147	0xbd3794fd	-0.04481982
148	0x3ca1afc5	0.019737134
149	0x3cb261c3	0.021775132
150	0xbc871d09	-0.016493337
151	0x3d62441e	0.055240743
152	0x3d22b61d	0.039724458
153	0xbd9f626d	-0.07782445
154	0xbc1cef37	-0.009578518
155	0xbd158e68	-0.036512762
156	0x3dddcf01	0.108304985
157	0x3dafe6af	0.08588921
158	0xbc18e715	-0.009332438
159	0x3daa0efc	0.08303639
160	0x3a191f61	0.00058411626
161	0xbe10fd99	-0.1415924
162	0xbd2086d6	-0.03919109
163	0x3dbcda64	0.09221342
164	0x3c6d07cf	0.014467194
165	0x3b65fe92	0.0035094363
166	0xbc8b2427	-0.016985012
167	0xbc9978e7	-0.018734409
168	0xbd255333	-0.040362548
169	0x3e12b63f	0.14327334
170	0x3bc42702	0.0059860954
171	0x3d539ebf	0.051665064
172	0x3c28700c	0.01028062
173	0x3ca3aa14	0.01997856
174	0xbd2486f9	-0.040167782
175	0xbd9bd57a	-0.07609077
176	0x3c4f5acc	0.012655925
177	0x3d36de9c	0.04464589
178	0xbc956164	-0.018234916
179	0x3d3ef6e9	0.04662219
180	0x3c8d520f	0.017251043
181	0x3cee333e	0.029077169
182	0x3cfc0cdc	0.03076785
183	0xbc7c44ff	-0.015397309
184	0x3d0d8334	0.034548953
185	0xbcb02c60	-0.021505535
186	0x3d1dad61	0.038495425
187	0x3d3ac187	0.04559472
188	0x3d2ac377	0.041690316
189	0xbd401d58	-0.046902984
190	0x3b154b26	0.0022780388
191	0x3c84eaf5	0.016225317
192	0x3d61874b	0.055060666
193	0xbd165300	-0.03670025
194	0x3d9f6233	0.07782402
195	0x3d5d101a	0.053970434
196	0x3b8fcf58	0.004388731
197	0x3caaa64c	0.02083125
198	0x3d999f43	0.0750108
199	0x3ce11971	0.027477952
200	0x3cda4ebe	0.026648875
201	0xbb8b640d	-0.0042538703
202	0xbc375782	-0.011190297
203	0xbdd8c504	-0.10584453
204	0x3babe5af	0.0052458863
205	0x3dd2efb8	0.10299629
206	0xbcddf8e9	-0.027096229
207	0x3bfdeb42	0.007748992
208	0x3d3ef5a3	0.046620976
209	0xbc5df6ad	-0.013547582
210	0x3d3d6c93	0.046246123
211	0xbdcc4fbd	-0.09976146
212	0xbc4e68c0	-0.0125982165
213	0x3d499f56	0.04922422
214	0xbcfcebbe	-0.03087413
215	0x3d867a83	0.06566336
216	0xbdc2fca7	-0.09520846
217	0xbb047620	-0.002021201
218	0x3d9e9add	0.077443816
219	0x3d1b2523	0.037877213
220	0xbd9d91af	-0.076938026
221	0xbcb78582	-0.022402529
222	0x3d388191	0.04504544
223	0xbc972b34	-0.018453218
224	0x3d8dcb1c	0.06923506
225	0x3d2741b7	0.040834155
226	0x3d889002	0.06668092
227	0xb98cdf6c	-0.00026869343
228	0xbc0ff5b6	-0.008786609
229	0xbd9539db	-0.07286426
230	0xbbd00ffb	-0.0063495613
231	0xbd786de7	-0.060651686
232	0x3d80a2fa	0.06281085
233	0x3b9edc0b	0.0048480085
234	0xbba2eff0	-0.0049724504
235	0x3d6cf697	0.057852354
236	0xbc9c1f5a	-0.019057918
237	0x3d40bda5	0.04705586
238	0xbd4689e8	-0.04847136
239	0x3cab2691	0.020892413
240	0xbd47c11f	-0.04876816
241	0x3d838ac0	0.06422949
242	0xbca3e1bb	-0.020005098
243	0xbd0ce5fe	-0.034399025
244	0xbdc42322	-0.095770136
245	0x3c6b47d5	0.014360388
246	0x3d801770	0.0625447
247	0xbdc1ad30	-0.09456861
248	0x3dca9121	0.098909624
249	0x3ca7d935	0.020489315
250	0xbd512d0b	-0.051068347
251	0xbc0aac4d	-0.008463931
252	0x3cea266c	0.028582774
253	0x3d2849c5	0.041085977
254	0xbb2544f8	-0.002521811
255	0x3d8095a2	0.0627854

hidden_fc.bias f4 [100]
0	0xbbac8285	-0.0052645826
1	0x3d1b1b9d	0.03786813
2	0x3d25aef5	0.040450055
3	0x3cdb3715	0.026759664
4	0xbd0d3199	-0.034471128
5	0x3c5e112b	0.013553898
6	0xbcf76d62	-0.030203525
7	0xbcc97f56	-0.024596851
8	0xbcca0277	-0.024659378
9	0xbcb3d8e3	-0.021954006
10	0xbc1c34b6	-0.009534052
11	0x3d98a7d4	0.07453886
12	0x3cd7cf77	0.026344044
13	0xba0508a9	-0.0005074838
14	0x3cc82057	0.024429483
15	0xbcebe973	-0.02879784
16	0x3ddbcb22	0.10732104
17	0xbc832ff9	-0.016014086
18	0x3d64ceba	0.055861212
19	0xbba5fbf9	-0.005065438
20	0xbc88f261	-0.016717138
21	0x3b04b99b	0.002025223
22	0x3d6e8dca	0.05824069
23	0xbb373b88	-0.0027959067
24	0x3cec4642	0.028842095
25	0xbcb0d070	-0.021583766
26	0x3cd1b029	0.025596695
27	0xbc7ce6b8	-0.015435867
28	0x3d473cc6	0.048641942
29	0x3da532b9	0.08066315
30	0x3d734c86	0.05939915
31	0x3d98b86c	0.07457051
32	0x3c8168b8	0.015797004
33	0xbc109221	-0.008823902
34	0x3d9eb5b8	0.07749504
35	0x3b4b41b4	0.0031014504
36	0x3cffc696	0.031222623
37	0xbcbf45e5	-0.023348758
38	0x3cf871a1	0.03032762
39	0xbc00cf6e	-0.007861955
40	0xbcbff87f	-0.023433922
41	0x3ccf2165	0.025284478
42	0x3d17bb79	0.037044022
43	0x3c8a373b	0.016872039
44	0xbd1fc70a	-0.039008178
45	0x3d54f09c	0.051987275
46	0xbcbe4276	-0.02322505
47	0x3c47fdbb	0.01220649
48	0xbd6306e3	-0.05542649
49	0xbc832949	-0.016010897
50	0x3c6bc80c	0.014390957
51	0x3ca8ff7c	0.020629637
52	0x3dc04947	0.093889765
53	0xbd15c29a	-0.03656254
54	0x3d94c272	0.0726365
55	0x3aac3d36	0.0013140801
56	0xbcdd6394	-0.027025022
57	0xbd1163eb	-0.03549568
58	0x3aeaa102	0.0017900767
59	0x3cc47b4c	0.023984574
60	0xbc7b4cd6	-0.015338143
61	0x3b581c3c	0.0032975813
62	0xbbc54d82	-0.0060212025
63	0xbd15d4b5	-0.036579806
64	0x3d90e66f	0.07075202
65	0x3d3183ff	0.043338772
66	0x3ab294b4	0.0013624639
67	0xbc9dc5ff	-0.019259451
68	0xbd7a0acd	-0.061045457
69	0xbc8b7338	-0.017022714
70	0xbce350b9	-0.027748452
71	0xbcd73d86	-0.026274454
72	0x3d209fbe	0.039214842
73	0x3dc4eb3b	0.09615179
74	0x3d5fe1c2	0.05465866
75	0xbd0539d2	-0.032525845
76	0xbce5b5bb	-0.028040757
77	0x3a9c18df	0.0011909268
78	0xba57b58d	-0.00082286523
79	0x3ceda7c1	0.029010655
80	0x3d4a5b30	0.04940337
81	0xbd6f4644	-0.05841662
82	0x3cc68429	0.02423294
83	0xbc6ad11b	-0.014332081
84	0x3b99d163	0.0046941503
85	0xbc1da6ff	-0.0096223345
86	0xbc529c90	-0.01285471
87	0xbc9598f0	-0.018261403
88	0xbc9182ea	-0.01776262
89	0x3d03d761	0.032187823
90	0xbcce496a	-0.02518149
91	0x3cda297a	0.026631106
92	0x3d751f13	0.059844088
93	0x3d1e2518	0.038609594
94	0xbd0e4be8	-0.03474036
95	0xbc3421f1	-0.01099442
96	0x3cd86cef	0.026419131
97	0x3d8d23b8	0.068915784
98	0x3c5d3687	0.01350177
99	0x3c94547f	0.018106697

output_fc.weight f4 [10, 100]
0	0xbe26e408	-0.16297925
1	0xbdedd2cd	-0.11612473
2	0xbea31324	-0.3185054
3	0x3deceae0	0.11568236
4	0xbd896309	-0.067083426
5	0xbdfd5d91	-0.12371362
6	0xbe491a20	-0.19638872
7	0xbd7d2238	-0.06180021
8	0xbdf5bf18	-0.11999339
9	0x3d137e34	0.03600903
10	0xbbc1847f	-0.0059056873
11	0xbd24a0aa	-0.040192284
12	0xbe49412d	-0.19653769
13	0x3ed45ca1	0.4147692
14	0x3cfe0787	0.031009449
15	0xbe408968	-0.18802416
16	0xbe39c902	-0.18143085
17	0xbe4103cd	-0.18849106
18	0xbe58a86b	-0.21157996
19	0x3d8b2450	0.067940354
20	0x3d0ed445	0.034870405
21	0xbdf8e6e9	-0.121534176
22	0x3cafc040	0.021453977
23	0xbe5e708f	-0.21722625
24	0xbe29880f	-0.16555808
25	0x3d233174	0.039842084
26	0xbd7c4da2	-0.061597474
27	0xbcbc8f08	-0.023017421
28	0x3db0bfde	0.08630346
29	0x3eb20bac	0.3477453
30	0xba77606e	-0.00094366714
31	0x3e59a28b	0.21253411
32	0x3dbad9ae	0.0912355
33	0xbdb60f3f	-0.08889627
34	0xbea22e3c	-0.316759
35	0xbcf47816	-0.029842418
36	0xbe4e28c7	-0.20132743
37	0x3db662d4	0.08905569
38	0x3e833118	0.25623393
39	0x3b57155e	0.0032819132
40	0xbead30a4	-0.33826172
41	0xbe942178	-0.28931785
42	0xbe61fb85	-0.22068603
43	0x3e967a5e	0.29390234
44	0x3d996795	0.0749046
45	0x3e8aca1a	0.27107316
46	0x3df10be3	0.11769845
47	0xbd90a634	-0.07062951
48	0x3ef15f59	0.47143057
49	0xbe22796e	-0.15866634
50	0x3de02003	0.10943606
51	0x3cda5e44	0.026656277
52	0x3e87f405	0.2655336
53	0xbe560694	-0.20900947
54	0x3e93924c	0.28822553
55	0xbd01b22a	-0.03166405
56	0x3e49b444	0.19697672
57	0x3ce1039e	0.027467545
58	0xbdb4b435	-0.08823434
59	0x3e1beb1d	0.15226407
60	0xbe70dffe	-0.23522946
61	0x3e8a209c	0.26978004
62	0x3e83b1df	0.25721642
63	0xbd9d8607	-0.07691579
64	0x3e2919ab	0.16513698
65	0xbe0f8ddd	-0.1401896
66	0xbd728787	-0.05921128
67	0x3d334d37	0.04377481
68	0x3e6651ac	0.22492093
69	0x3c76cef3	0.015063989
70	0x3e54c21e	0.20777175
71	0x3e51c687	0.20485888
72	0xbd69575d	-0.05696808
73	0xbe3103b1	-0.17286564
74	0xbe0bd528	-0.13655531
75	0x3d0ffd71	0.03515381
76	0x3d62652a	0.05527226
77	0x3c9e3b19	0.01931529
78	0x3d84bdcc	0.064815134
79	0x3d076f8e	0.03306537
80	0x3d8f7de3	0.07006433
81	0xbe4befd6	-0.19915709
82	0xbdfa9226	-0.12234907
83	0xbe42f4ac	-0.19038647
84	0xbdcc6bfb	-0.09981533
85	0xbc0b5572	-0.0085042585
86	0xbe94d598	-0.2906921
87	0x3d62626c	0.055269644
88	0xbe80423b	-0.2505053
89	0x3ca9d891	0.02073315
90	0x3dc3c98c	0.095599264
91	0x3e5687d4	0.20950252
92	0x3ea7336e	0.32656425
93	0x3e733c5f	0.23753498
94	0xbd8b709e	-0.068085894
95	0xbe7ca04f	-0.24670528
96	0x3e842767	0.25811312
97	0xbd173ee3	-0.036925208
98	0x3e525212	0.2053912
99	0xbe081f78	-0.13293254
100	0x3e087f40	0.13329792
101	0x3e1cfd4c	0.15331
102	0xbdec0483	-0.11524298
103	0x3d45648d	0.048191596
104	0x3e343663	0.17598872
105	0x3ee21890	0.44159365
106	0xbce783ba	-0.028261054
107	0x3e8227d7	0.2542102
108	0x3e1ea9ca	0.15494457
109	0x3db49698	0.08817786
110	0x3c086270	0.008324251
111	0x3da26ea1	0.07931257
112	0xbe02fee6	-0.12792549
113	0x3e5847f0	0.21121192
114	0x3da6c284	0.0814257
115	0x3dc47455	0.09592501
116	0xbec70a75	-0.38875166
117	0xbd8d90ff	-0.069124214
118	0x3e13e1e0	0.14441633
119	0xbcdb8a15	-0.026799241
120	0xbd5ec23c	-0.054384455
121	0xbea36fef	-0.31921336
122	0xbe8a838a	-0.2705348
123	0xbcd7fcf2	-0.02636573
124	0x3cd19d25	0.025587628
125	0xbd36d769	-0.044639025
126	0x3d01152a	0.031514324
127	0x3e426fc6	0.1898795
128	0xbca24e1b	-0.019812634
129	0x3e08bf5c	0.13354248
130	0xbd3b66f3	-0.045752477
131	0xbe7655b1	-0.24056126
132	0x3d0eee99	0.034895513
133	0xbc430a02	-0.0119042415
134	0xbe9164fe	-0.28397363
135	0x3d4f6826	0.050636433
136	0x3d1fc809	0.039009128
137	0x3e84e7d2	0.25958115
138	0xbd772c12	-0.060344763
139	0xbd938702	-0.07203485
140	0x3e64ef12	0.22356823
141	0xbd8d32b1	-0.06894434
142	0xbe106522	-0.14101079
143	0xbdb39d2c	-0.087702125
144	0xbe80f7ba	-0.25189
145	0xbe8ec549	-0.27884892
146	0xbe5a2880	-0.21304512
147	0x3d9f32ab	0.07773336
148	0x3e438b5d	0.19096132
149	0x3e6add89	0.22936071
150	0x3e064fa7	0.13116322
151	0xbd4e5f1c	-0.050383672
152	0xbe8effee	-0.27929634
153	0x3ef8e7b2	0.4861427
154	0x3dd0c126	0.1019309
155	0x3ef54ad2	0.47908646
156	0x3dbba676	0.09162609
157	0xbd0e85ab	-0.034795444
158	0x3e464469	0.19362034
159	0x3d688a5d	0.05677258
160	0xbea8fd4b	-0.33005747
161	0x3db697e9	0.08915693
162	0x3d8d059a	0.06885834
163	0xba5a67ef	-0.00083315274
164	0xbea2d8a9	-0.31805924
165	0xbe80bb91	-0.25143102
166	0x3e9e34cb	0.30899653
167	0x3d51208c	0.05105643
168	0x3e1c5ce0	0.15269804
169	0xbd60a4e5	-0.054844756
170	0x3e3efd67	0.18651353
171	0x3de120ba	0.1099257
172	0xbca75641	-0.020426871
173	0xbd96e8a8	-0.073685944
174	0xbdc284c4	-0.09497979
175	0x3dc00ede	0.09377836
176	0x3e10cb70	0.14140105
177	0x3d847ff4	0.064697176
178	0xbdbcca08	-0.09218222
179	0x3de16395	0.11005322
180	0xbe0b503c	-0.13604826
181	0x3e819c5c	0.25314605
182	0x3d57c182	0.052674778
183	0xbe119291	-0.14216067
184	0xbd66f7cc	-0.05638866
185	0x3dd6b476	0.10483639
186	0xbce723ac	-0.028215252
187	0x3e2b71dd	0.16742654
188	0x3e451427	0.19245969
189	0x3c84087f	0.016117333
190	0x3d7404c5	0.05957486
191	0x3df65a7c	0.12028977
192	0xbdcd92a3	-0.10037734
193	0xbd73e8d9	-0.059548233
194	0x3d611fd9	0.054962013
195	0xbd7f2d50	-0.062299073
196	0xbd439b9f	-0.047755834
197	0x3d8fa5f9	0.07014079
198	0xbecdd013	-0.4019781
199	0xbe81bf0a	-0.25341064
200	0x3e92a2a5	0.28639713
201	0xbe7bde55	-0.24596532
202	0x3d0a7f4d	0.03381281
203	0x3df9dc01	0.122001655
204	0xbcc9e7a4	-0.024646588
205	0x3dd3c308	0.10339934
206	0x3d673e73	0.05645604
207	0xbe91c232	-0.28468472
208	0xbdb39c7a	-0.0877008
209	0x3dfa07df	0.122085325
210	0xbd2eb51a	-0.04265318
211	0xbdf74738	-0.12074131
212	0xbba1ad77	-0.0049340087
213	0xbdba2cea	-0.09090598
214	0xbceaa428	-0.028642729
215	0x3e9cf29c	0.30653846
216	0xbc149808	-0.00906945
217	0x3e6e39b1	0.23264195
218	0x3da0f799	0.078597255
219	0x3dab6a73	0.08369913
220	0xbd71ee4d	-0.059065152
221	0xbc6e6553	-0.014550525
222	0xbe02f75d	-0.12789674
223	0xbe575df8	-0.2103194
224	0x3da73f77	0.08166402
225	0xbd5da890	-0.05411583
226	0x3e2fd087	0.1716939
227	0x3e89b5b5	0.26896444
228	0x3dca2fea	0.0987242
229	0xbe302463	-0.1720138
230	0xbd1135c5	-0.03545167
231	0x3d835d28	0.064142525
232	0xbd5be3ea	-0.053684153
233	0x3e0d1eb2	0.1378124
234	0x3e33cb4b	0.17558019
235	0x3ccb73e9	0.024835544
236	0xbe6e3e97	-0.23266064
237	0x3e14113b	0.14459698
238	0xbe35aea7	-0.17742406
239	0xbe18aa31	-0.14908673
240	0x3d92d4bb	0.07169481
241	0x3d916d8a	0.07100971
242	0x3ec93b49	0.39303043
243	0xbe7a7b01	-0.24460985
244	0x3e3e685f	0.18594502
245	0xbd142881	-0.03617144
246	0xbdf6fb2f	-0.12059628
247	0xbd6ca106	-0.05777075
248	0x3e37eaec	0.1796071
249	0xbe4b13a4	-0.19831711
250	0x3e1a2154	0.15051776
251	0x3b172607	0.0023063438
252	0x3d8c90a7	0.06863528
253	0x3e022092	0.12707737
254	0xbe9d62c3	-0.30739412
255	0xbe362e60	-0.17791128

output_fc.bias f4 [10]
0	0x3cfb6d16	0.030691665
1	0xbdd0e1e2	-0.10199334
2	0xbc9b424e	-0.018952515
3	0xbbf05030	-0.007333778
4	0xbd2600f0	-0.040528238
5	0x3d45ede8	0.04832259
6	0xbd841dd7	-0.06451004
7	0xbd9b6c02	-0.0758896
8	0x3e21849d	0.15773244
9	0x3c47a164	0.012184475
